programs/SOGA/NN/params/params10.npz (npz, 1286 bytes, 4 tensors)

W1 f8 [10]
00000000: 8716 d9ce f7d3 1cc0 9643 8b6c e77b 1a40
00000010: 6210 5839 b4c8 c6bf 85eb 51b8 1e85 1840
00000020: d34d 6210 5839 1dc0 d122 dbf9 7eea 1640
00000030: 60e5 d022 dbf9 1c40 f4fd d478 e966 2340
00000040: 7d3f 355e ba49 10c0 7b14 ae47 e17a e43f
-7.207 6.621 -0.178 6.13 -7.306 5.729 7.244 9.701
-4.072 0.64

b1 f8 [10]
00000000: d34d 6210 5839 c43f 295c 8fc2 f528 bc3f
00000010: 7b14 ae47 e17a ec3f 3789 4160 e5d0 ea3f
00000020: 6de7 fba9 f1d2 d53f 2506 8195 438b d43f
00000030: ae47 e17a 14ae df3f e5d0 22db f97e d23f
00000040: 1d5a 643b df4f ed3f 6666 6666 6666 ee3f
0.158 0.11 0.89 0.838 0.341 0.321 0.495 0.289
0.916 0.95

W2 f8 [10]
00000000: 83c0 caa1 45b6 0340 448b 6ce7 fb29 1dc0
00000010: be9f 1a2f dd24 fa3f 7b14 ae47 e13a 2140
00000020: 9643 8b6c e7fb 0bc0 ee7c 3f35 5eba e1bf
00000030: dd24 0681 9543 e73f ee7c 3f35 5e3a 20c0
00000040: f2d2 4d62 1058 1840 dd24 0681 9543 0b40
2.464 -7.291 1.634 8.615 -3.498 -0.554 0.727 -8.114
6.086 3.408

b2 f8 [10]
00000000: 5a64 3bdf 4f8d e73f 2b87 16d9 cef7 b33f
00000010: 1904 560e 2db2 e93f 448b 6ce7 fba9 e53f
00000020: 295c 8fc2 f528 e83f fa7e 6abc 7493 d03f
00000030: 83c0 caa1 45b6 c33f 1b2f dd24 0681 953f
00000040: 8195 438b 6ce7 cb3f 9643 8b6c e7fb e93f
0.736 0.078 0.803 0.677 0.755 0.259 0.154 0.021
0.218 0.812
