programs/SOGA/NN/params/params25.npz (npz, 1766 bytes, 4 tensors)

W1 f8 [25]
00000000: ee7c 3f35 5e3a 1fc0 aaf1 d24d 6210 1540
00000010: 6666 6666 6666 1940 aaf1 d24d 6210 2140
00000020: 986e 1283 c0ca 1dc0 e926 3108 ac5c 20c0
00000030: 52b8 1e85 eb51 11c0 fa7e 6abc 7413 1440
00000040: 1b2f dd24 0681 1040 5c8f c2f5 285c 1b40
00000050: b29d efa7 c64b b73f ec51 b81e 85eb f73f
00000060: b29d efa7 c64b ff3f a69b c420 b0f2 14c0
00000070: 7d3f 355e bac9 1740 a01a 2fdd 2486 15c0
00000080: 1b2f dd24 0681 11c0 3d0a d7a3 703d 0240
00000090: 08ac 1c5a 64fb 2140 6f12 83c0 ca21 1ac0
000000a0: 14ae 47e1 7a14 17c0 3bdf 4f8d 976e 1340
000000b0: 0c02 2b87 16d9 1640 e3a5 9bc4 2070 20c0
000000c0: c3f5 285c 8f42 1940
-7.807 5.266 6.35 8.532 -7.448 -8.181 -4.33 5.019
4.126 6.84 0.091 1.495 1.956 -5.237 5.947 -5.381
-4.376 2.28 8.991 -6.533 -5.77 4.858 5.712 -8.219
6.315

b1 f8 [25]
00000000: d9ce f753 e3a5 9b3f 5839 b4c8 76be d73f
00000010: 6891 ed7c 3f35 de3f d9ce f753 e3a5 e73f
00000020: a8c6 4b37 8941 d83f 3f35 5eba 490c e23f
00000030: 60e5 d022 dbf9 ea3f a470 3d0a d7a3 ec3f
00000040: b81e 85eb 51b8 e23f b81e 85eb 51b8 e63f
00000050: 3bdf 4f8d 976e e23f d9ce f753 e3a5 9b3f
00000060: 79e9 2631 08ac dc3f 08ac 1c5a 643b e33f
00000070: 2b87 16d9 cef7 eb3f 83c0 caa1 45b6 c33f
00000080: dd24 0681 9543 ef3f 1d5a 643b df4f e93f
00000090: 6f12 83c0 caa1 d53f dbf9 7e6a bc74 db3f
000000a0: 6de7 fba9 f1d2 e13f 39b4 c876 be9f ea3f
000000b0: 77be 9f1a 2fdd dc3f c520 b072 6891 e53f
000000c0: f4fd d478 e926 d93f
0.027 0.371 0.472 0.739 0.379 0.564 0.843 0.895
0.585 0.71 0.576 0.027 0.448 0.601 0.874 0.154
0.977 0.791 0.338 0.429 0.557 0.832 0.451 0.674
0.393

W2 f8 [25]
00000000: ac1c 5a64 3bdf 0b40 4c37 8941 60e5 0dc0
00000010: b4c8 76be 9f1a 0ac0 022b 8716 d9ce e73f
00000020: 5c8f c2f5 285c 05c0 d9ce f753 e325 1140
00000030: 0e2d b29d efa7 1740 46b6 f3fd d478 d1bf
00000040: 8195 438b 6ce7 fb3f 1283 c0ca a1c5 1040
00000050: 3bdf 4f8d 976e 0d40 a470 3d0a d7a3 11c0
00000060: d34d 6210 5839 0ac0 e5d0 22db f97e 1e40
00000070: fa7e 6abc 7493 0540 39b4 c876 be9f fe3f
00000080: bc74 9318 0456 eebf 8d97 6e12 8340 2340
00000090: d34d 6210 5839 1ac0 b072 6891 edfc 1540
000000a0: 560e 2db2 9def 1a40 f2d2 4d62 10d8 1d40
000000b0: e7fb a9f1 d28d 20c0 fa7e 6abc 74d3 2340
000000c0: 4c37 8941 60e5 1340
3.484 -3.737 -3.263 0.744 -2.67 4.287 5.914 -0.273
1.744 4.193 3.679 -4.41 -3.278 7.624 2.697 1.914
-0.948 9.626 -6.556 5.497 6.734 7.461 -8.277 9.913
4.974

b2 f8 [25]
00000000: 713d 0ad7 a370 e13f 1b2f dd24 0681 dd3f
00000010: 5839 b4c8 76be 9f3f 0681 9543 8b6c eb3f
00000020: 7368 91ed 7c3f e53f 0456 0e2d b29d e33f
00000030: 52b8 1e85 eb51 b83f d34d 6210 5839 e03f
00000040: 1058 39b4 c876 de3f 8941 60e5 d022 ef3f
00000050: cba1 45b6 f3fd d43f f853 e3a5 9bc4 d83f
00000060: 6891 ed7c 3f35 ea3f fca9 f1d2 4d62 503f
00000070: ba49 0c02 2b87 c63f 39b4 c876 be9f ee3f
00000080: 2b87 16d9 cef7 e73f a69b c420 b072 e83f
00000090: 3108 ac1c 5a64 e33f 9eef a7c6 4b37 e93f
000000a0: 8195 438b 6ce7 eb3f fca9 f1d2 4d62 d83f
000000b0: 1904 560e 2db2 ed3f 6abc 7493 1804 ea3f
000000c0: 9318 0456 0e2d b23f
0.545 0.461 0.031 0.857 0.664 0.613 0.095 0.507
0.476 0.973 0.328 0.387 0.819 0.001 0.176 0.957
0.749 0.764 0.606 0.788 0.872 0.381 0.928 0.813
0.071
