programs/SOGA/NN/params/params50.npz (npz, 2566 bytes, 4 tensors)

W1 f8 [50]
0	0xbffe24dd2f1a9fbe	-1.884
1	0x400b9374bc6a7efa	3.447
2	0xc01579db22d0e560	-5.369
3	0x40184395810624dd	6.066
4	0x401fc8b439581062	7.946
5	0x40165b22d0e56042	5.589
6	0xc019800000000000	-6.375
7	0x4023ba5e353f7cee	9.864
8	0xc01b6c8b43958106	-6.856
9	0x4005c49ba5e353f8	2.721
10	0xc01cc8b439581062	-7.196
11	0x401c322d0e560419	7.049
12	0x40171374bc6a7efa	5.769
13	0xc0103a5e353f7cee	-4.057
14	0x3ff37ced916872b0	1.218
15	0xbffca3d70a3d70a4	-1.79
16	0xbffd1eb851eb851f	-1.82
17	0xbfe8bc6a7ef9db23	-0.773
18	0x3ffa7ef9db22d0e5	1.656
19	0x3fe4d4fdf3b645a2	0.651
20	0xc0071cac083126e9	-2.889
21	0x401afced916872b0	6.747
22	0x4022c00000000000	9.375
23	0x3fef22d0e5604189	0.973
24	0xc020a1cac083126f	-8.316
25	0xbfd4bc6a7ef9db23	-0.324
26	0x400bac083126e979	3.459
27	0x4008c28f5c28f5c3	3.095
28	0xc01d000000000000	-7.25
29	0x401fcccccccccccd	7.95
30	0xc00520c49ba5e354	-2.641
31	0xc010a7ef9db22d0e	-4.164
32	0xc00349ba5e353f7d	-2.411
33	0xc01c25e353f7ced9	-7.037
34	0x4015b645a1cac083	5.428
35	0x4020df3b645a1cac	8.436
36	0x4009ed916872b021	3.241
37	0x401f9374bc6a7efa	7.894
38	0xc01c52f1a9fbe76d	-7.081
39	0x401cfef9db22d0e5	7.249
40	0xc01c5604189374bc	-7.084
41	0xc008cccccccccccd	-3.1
42	0x4017c6a7ef9db22d	5.944
43	0xbff77ced916872b0	-1.468
44	0xbffee978d4fdf3b6	-1.932
45	0x401f95810624dd2f	7.896
46	0xc0226a7ef9db22d1	-9.208
47	0xc0225fbe76c8b439	-9.187
48	0x401e23d70a3d70a4	7.535
49	0x3ff7e76c8b439581	1.494

b1 f8 [50]
0	0x3fb89374bc6a7efa	0.096
1	0x3fee0c49ba5e353f	0.939
2	0x3fda9fbe76c8b439	0.416
3	0x3fced916872b020c	0.241
4	0x3fc189374bc6a7f0	0.137
5	0x3fe5916872b020c5	0.674
6	0x3fd4189374bc6a7f	0.314
7	0x3fd3d70a3d70a3d7	0.31
8	0x3fcf1a9fbe76c8b4	0.243
9	0x3fe0fdf3b645a1cb	0.531
10	0x3fca9fbe76c8b439	0.208
11	0x3fd3e76c8b439581	0.311
12	0x3fddb22d0e560419	0.464
13	0x3fa78d4fdf3b645a	0.046
14	0x3fdc49ba5e353f7d	0.442
15	0x3fe55810624dd2f2	0.667
16	0x3fafbe76c8b43958	0.062
17	0x3fdb126e978d4fdf	0.423
18	0x3fd6353f7ced9168	0.347
19	0x3fd9374bc6a7ef9e	0.394
20	0x3fc3f7ced916872b	0.156
21	0x3fd77ced916872b0	0.367
22	0x3fb1eb851eb851ec	0.07
23	0x3faba5e353f7ced9	0.054
24	0x3fe8ac083126e979	0.771
25	0x3fd74bc6a7ef9db2	0.364
26	0x3fe49374bc6a7efa	0.643
27	0x3fe63d70a3d70a3d	0.695
28	0x3fec28f5c28f5c29	0.88
29	0x3fe916872b020c4a	0.784
30	0x3fe722d0e5604189	0.723
31	0x3fc1eb851eb851ec	0.14
32	0x3fdced916872b021	0.452
33	0x3fa810624dd2f1aa	0.047
34	0x3fd4bc6a7ef9db23	0.324
35	0x3fd6978d4fdf3b64	0.353
36	0x3fe4624dd2f1a9fc	0.637
37	0x3fe0000000000000	0.5
38	0x3fca3d70a3d70a3d	0.205
39	0x3fc8f5c28f5c28f6	0.195
40	0x3fd9cac083126e98	0.403
41	0x3fe189374bc6a7f0	0.548
42	0x3fd178d4fdf3b646	0.273
43	0x3fc0624dd2f1a9fc	0.128
44	0x3fed16872b020c4a	0.909
45	0x3fef020c49ba5e35	0.969
46	0x3fd570a3d70a3d71	0.335
47	0x3fedc28f5c28f5c3	0.93
48	0x3fb89374bc6a7efa	0.096
49	0x3f926e978d4fdf3b	0.018

W2 f8 [50]
0	0x401e7df3b645a1cb	7.623
1	0x4009ef9db22d0e56	3.242
2	0xc023547ae147ae14	-9.665
3	0xc0134395810624dd	-4.816
4	0xc02395810624dd2f	-9.792
5	0x3fe5e353f7ced917	0.684
6	0xc0150c49ba5e353f	-5.262
7	0xc01604189374bc6a	-5.504
8	0xbffbf7ced916872b	-1.748
9	0xbfecbc6a7ef9db23	-0.898
10	0x3ff6bc6a7ef9db23	1.421
11	0xc01e03126e978d50	-7.503
12	0xbff86a7ef9db22d1	-1.526
13	0x4000ae147ae147ae	2.085
14	0xbff30624dd2f1aa0	-1.189
15	0x400cdb22d0e56042	3.607
16	0x401624dd2f1a9fbe	5.536
17	0x40133e76c8b43958	4.811
18	0x3feef1a9fbe76c8b	0.967
19	0xc0159db22d0e5604	-5.404
20	0xbff6083126e978d5	-1.377
21	0xc01646a7ef9db22d	-5.569
22	0x400f1cac083126e9	3.889
23	0x4017d0e560418937	5.954
24	0xc003d2f1a9fbe76d	-2.478
25	0xbffb810624dd2f1b	-1.719
26	0xc0224ccccccccccd	-9.15
27	0x40236c083126e979	9.711
28	0x3fc126e978d4fdf4	0.134
29	0xc021dc28f5c28f5c	-8.93
30	0x400e0c49ba5e353f	3.756
31	0xbfe2d916872b020c	-0.589
32	0xbfc70a3d70a3d70a	-0.18
33	0xc01fa0c49ba5e354	-7.907
34	0xc016d604189374bc	-5.709
35	0xc0140b4395810625	-5.011
36	0x401748b439581062	5.821
37	0xbfd29fbe76c8b439	-0.291
38	0x4000bc6a7ef9db23	2.092
39	0xc02051eb851eb852	-8.16
40	0xc00a83126e978d50	-3.314
41	0x400bdd2f1a9fbe77	3.483
42	0x3ff404189374bc6a	1.251
43	0x4013883126e978d5	4.883
44	0x40171cac083126e9	5.778
45	0xc00afdf3b645a1cb	-3.374
46	0xc020ba5e353f7cee	-8.364
47	0xc02159999999999a	-8.675
48	0xc011645a1cac0831	-4.348
49	0x4015e978d4fdf3b6	5.478

b2 f8 [50]
0	0x3fcf3b645a1cac08	0.244
1	0x3feddb22d0e56042	0.933
2	0x3fc45a1cac083127	0.159
3	0x3fc3b645a1cac083	0.154
4	0x3fd189374bc6a7f0	0.274
5	0x3fef5c28f5c28f5c	0.98
6	0x3fe189374bc6a7f0	0.548
7	0x3fb95810624dd2f2	0.099
8	0x3fea45a1cac08312	0.821
9	0x3fec10624dd2f1aa	0.877
10	0x3fe4dd2f1a9fbe77	0.652
11	0x3faa9fbe76c8b439	0.052
12	0x3fe0189374bc6a7f	0.503
13	0x3fe3e76c8b439581	0.622
14	0x3fe35c28f5c28f5c	0.605
15	0x3fe2666666666666	0.575
16	0x3fde04189374bc6a	0.469
17	0x3fceb851eb851eb8	0.24
18	0x3fd4cccccccccccd	0.325
19	0x3fc53f7ced916873	0.166
20	0x3fe2a7ef9db22d0e	0.583
21	0x3fecb4395810624e	0.897
22	0x3fd04189374bc6a8	0.254
23	0x3fc1a9fbe76c8b44	0.138
24	0x3fe0fdf3b645a1cb	0.531
25	0x3fcc28f5c28f5c29	0.22
26	0x3fe27ef9db22d0e5	0.578
27	0x3fda3d70a3d70a3d	0.41
28	0x3fead916872b020c	0.839
29	0x3fd199999999999a	0.275
30	0x3fe20c49ba5e353f	0.564
31	0x3fe010624dd2f1aa	0.502
32	0x3fc0624dd2f1a9fc	0.128
33	0x3fdab020c49ba5e3	0.417
34	0x3fd9fbe76c8b4396	0.406
35	0x3fc2b020c49ba5e3	0.146
36	0x3fdc9ba5e353f7cf	0.447
37	0x3fe69fbe76c8b439	0.707
38	0x3faf3b645a1cac08	0.061
39	0x3feddb22d0e56042	0.933
40	0x3fde353f7ced9168	0.472
41	0x3fe10e5604189375	0.533
42	0x3fe48b4395810625	0.642
43	0x3fd810624dd2f1aa	0.376
44	0x3fefae147ae147ae	0.99
45	0x3fe09ba5e353f7cf	0.519
46	0x3f9374bc6a7ef9db	0.019
47	0x3fec10624dd2f1aa	0.877
48	0x3fcef9db22d0e560	0.242
49	0x3f916872b020c49c	0.017
