programs/SOGA/NN/params/params100.npz (npz, 4166 bytes, 4 tensors)

W1 f8 [100]
0	0xc01cdc28f5c28f5c	-7.215
1	0xc01019999999999a	-4.025
2	0xc01d6b851eb851ec	-7.355
3	0xc0119ba5e353f7cf	-4.402
4	0x3fbfbe76c8b43958	0.124
5	0x4010f7ced916872b	4.242
6	0x401489374bc6a7f0	5.134
7	0x3fc851eb851eb852	0.19
8	0x40053d70a3d70a3d	2.655
9	0x401a5810624dd2f2	6.586
10	0xc022b53f7ced9168	-9.354
11	0xc01ae04189374bc7	-6.719
12	0xc01b883126e978d5	-6.883
13	0xc0135d2f1a9fbe77	-4.841
14	0xc0119fbe76c8b439	-4.406
15	0x4003666666666666	2.425
16	0x3ff29fbe76c8b439	1.164
17	0xbfedcac083126e98	-0.931
18	0xc0226c8b43958106	-9.212
19	0xc0037ced916872b0	-2.436
20	0xc023374bc6a7ef9e	-9.608
21	0x3ffff7ced916872b	1.998
22	0x4020116872b020c5	8.034
23	0x401d0d4fdf3b645a	7.263
24	0xc0055a1cac083127	-2.669
25	0xc020051eb851eb85	-8.01
26	0xc0105916872b020c	-4.087
27	0xc021bdf3b645a1cb	-8.871
28	0x4013a7ef9db22d0e	4.914
29	0xbfd96872b020c49c	-0.397
30	0xc010e76c8b439581	-4.226
31	0xc00d4dd2f1a9fbe7	-3.663
32	0x401d333333333333	7.3
33	0xc018fbe76c8b4396	-6.246
34	0xc01195810624dd2f	-4.396
35	0x401ad4fdf3b645a2	6.708
36	0xc013645a1cac0831	-4.848
37	0x4008ae147ae147ae	3.085
38	0xc00b4fdf3b645a1d	-3.414
39	0x4022170a3d70a3d7	9.045
40	0x3fafbe76c8b43958	0.062
41	0xc01fb22d0e560419	-7.924
42	0x4012e978d4fdf3b6	4.728
43	0x400322d0e5604189	2.392
44	0x4020851eb851eb85	8.26
45	0xbfdf6c8b43958106	-0.491
46	0x4016f4bc6a7ef9db	5.739
47	0x4023322d0e560419	9.598
48	0xc0130d4fdf3b645a	-4.763
49	0x40038b4395810625	2.443
50	0x4012c7ae147ae148	4.695
51	0x401a7df3b645a1cb	6.623
52	0xc00247ae147ae148	-2.285
53	0xc01327ef9db22d0e	-4.789
54	0x400ab4395810624e	3.338
55	0x401fbb645a1cac08	7.933
56	0x402004189374bc6a	8.008
57	0xc01dec8b43958106	-7.481
58	0x4023c49ba5e353f8	9.884
59	0x3ff42d0e56041893	1.261
60	0x4018cdd2f1a9fbe7	6.201
61	0xc0191db22d0e5604	-6.279
62	0xc01079db22d0e560	-4.119
63	0x401add2f1a9fbe77	6.716
64	0x401ac189374bc6a8	6.689
65	0x400b70a3d70a3d71	3.43
66	0xc005b645a1cac083	-2.714
67	0xc00895810624dd2f	-3.073
68	0x400d666666666666	3.675
69	0x4021e5e353f7ced9	8.949
70	0x3ff4083126e978d5	1.252
71	0x3ff14fdf3b645a1d	1.082
72	0x3ff6c083126e978d	1.422
73	0x401e1a9fbe76c8b4	7.526
74	0xc01c51eb851eb852	-7.08
75	0x40190d4fdf3b645a	6.263
76	0xc00151eb851eb852	-2.165
77	0xc0155810624dd2f2	-5.336
78	0x401b3f7ced916873	6.812
79	0xc020b22d0e560419	-8.348
80	0x4012010624dd2f1b	4.501
81	0x40135916872b020c	4.837
82	0xc0031a9fbe76c8b4	-2.388
83	0x401cfae147ae147b	7.245
84	0xc01aa4dd2f1a9fbe	-6.661
85	0xc01f3d70a3d70a3d	-7.81
86	0xc011f8d4fdf3b646	-4.493
87	0x401f820c49ba5e35	7.877
88	0xc01290624dd2f1aa	-4.641
89	0x401720c49ba5e354	5.782
90	0x400dcac083126e98	3.724
91	0xbfd34395810624dd	-0.301
92	0x3ffa10624dd2f1aa	1.629
93	0xc0213be76c8b4396	-8.617
94	0xc0232d916872b021	-9.589
95	0x3ffed4fdf3b645a2	1.927
96	0xbfcced916872b021	-0.226
97	0x400aced916872b02	3.351
98	0xc003e5604189374c	-2.487
99	0xc0183d70a3d70a3d	-6.06

b1 f8 [100]
0	0x3fe883126e978d50	0.766
1	0x3fd24dd2f1a9fbe7	0.286
2	0x3fe08b4395810625	0.517
3	0x3fdaf1a9fbe76c8b	0.421
4	0x3fd0000000000000	0.25
5	0x3fafbe76c8b43958	0.062
6	0x3fafbe76c8b43958	0.062
7	0x3fcd916872b020c5	0.231
8	0x3fe624dd2f1a9fbe	0.692
9	0x3fe7ced916872b02	0.744
10	0x3fe9b22d0e560419	0.803
11	0x3fe8083126e978d5	0.751
12	0x3fe7df3b645a1cac	0.746
13	0x3fe2666666666666	0.575
14	0x3fe8bc6a7ef9db23	0.773
15	0x3fdb333333333333	0.425
16	0x3fe3020c49ba5e35	0.594
17	0x3fb95810624dd2f2	0.099
18	0x3fe051eb851eb852	0.51
19	0x3fe61cac083126e9	0.691
20	0x3fee8f5c28f5c28f	0.955
21	0x3fd0e5604189374c	0.264
22	0x3fd6f9db22d0e560	0.359
23	0x3fc395810624dd2f	0.153
24	0x3feda1cac083126f	0.926
25	0x3fd45a1cac083127	0.318
26	0x3f747ae147ae147b	0.005
27	0x3fd4dd2f1a9fbe77	0.326
28	0x3f889374bc6a7efa	0.012
29	0x3fd676c8b4395810	0.351
30	0x3fc147ae147ae148	0.135
31	0x3fe79db22d0e5604	0.738
32	0x3fe49374bc6a7efa	0.643
33	0x3fc72b020c49ba5e	0.181
34	0x3fc604189374bc6a	0.172
35	0x3fd604189374bc6a	0.344
36	0x3fd10624dd2f1aa0	0.266
37	0x3fd428f5c28f5c29	0.315
38	0x3fbd70a3d70a3d71	0.115
39	0x3fd604189374bc6a	0.344
40	0x3fe8395810624dd3	0.757
41	0x3fe1810624dd2f1b	0.547
42	0x3fe5db22d0e56042	0.683
43	0x3fcccccccccccccd	0.225
44	0x3feaf1a9fbe76c8b	0.842
45	0x3fcc8b4395810625	0.223
46	0x3fe9a1cac083126f	0.801
47	0x3fddc28f5c28f5c3	0.465
48	0x3fc4189374bc6a7f	0.157
49	0x3fe89374bc6a7efa	0.768
50	0x3fd0e5604189374c	0.264
51	0x3fe6b851eb851eb8	0.71
52	0x3fe6a7ef9db22d0e	0.708
53	0x3fe449ba5e353f7d	0.634
54	0x3fedba5e353f7cee	0.929
55	0x3fceb851eb851eb8	0.24
56	0x3fcbc6a7ef9db22d	0.217
57	0x3fdea7ef9db22d0e	0.479
58	0x3fe8000000000000	0.75
59	0x3fcf3b645a1cac08	0.244
60	0x3fe37ced916872b0	0.609
61	0x3fd8624dd2f1a9fc	0.381
62	0x3fd820c49ba5e354	0.377
63	0x3fedf3b645a1cac1	0.936
64	0x3fee45a1cac08312	0.946
65	0x3feab020c49ba5e3	0.834
66	0x3fe753f7ced91687	0.729
67	0x3fb3333333333333	0.075
68	0x3feec083126e978d	0.961
69	0x3fd79db22d0e5604	0.369
70	0x3fdb645a1cac0831	0.428
71	0x3fd8c49ba5e353f8	0.387
72	0x3fe170a3d70a3d71	0.545
73	0x3fe25e353f7ced91	0.574
74	0x3fe6d0e560418937	0.713
75	0x3fd810624dd2f1aa	0.376
76	0x3fec4189374bc6a8	0.883
77	0x3fdb95810624dd2f	0.431
78	0x3fcdb22d0e560419	0.232
79	0x3fb645a1cac08312	0.087
80	0x3fdac083126e978d	0.418
81	0x3fc89374bc6a7efa	0.192
82	0x3fbba5e353f7ced9	0.108
83	0x3fdcbc6a7ef9db23	0.449
84	0x3fd2d0e560418937	0.294
85	0x3fed810624dd2f1b	0.922
86	0x3fe21cac083126e9	0.566
87	0x3fcc083126e978d5	0.219
88	0x3fd2f1a9fbe76c8b	0.296
89	0x3fe38d4fdf3b645a	0.611
90	0x3fed6872b020c49c	0.919
91	0x3fe34395810624dd	0.602
92	0x3fe6b020c49ba5e3	0.709
93	0x3fbae147ae147ae1	0.105
94	0x3fe916872b020c4a	0.784
95	0x3fe1916872b020c5	0.549
96	0x3feef1a9fbe76c8b	0.967
97	0x3fe4fdf3b645a1cb	0.656
98	0x3fcb22d0e5604189	0.212
99	0x3fef333333333333	0.975

W2 f8 [100]
0	0x4016f1a9fbe76c8b	5.736
1	0x4023be76c8b43958	9.872
2	0x4015e45a1cac0831	5.473
3	0x401db22d0e560419	7.424
4	0x3ff67ef9db22d0e5	1.406
5	0xc01cbd70a3d70a3d	-7.185
6	0x4002f5c28f5c28f6	2.37
7	0xbfc0a3d70a3d70a4	-0.13
8	0x401d010624dd2f1b	7.251
9	0x401df9db22d0e560	7.494
10	0x40065c28f5c28f5c	2.795
11	0xc0232f9db22d0e56	-9.593
12	0x4002ced916872b02	2.351
13	0xc022ee147ae147ae	-9.465
14	0xc0160624dd2f1aa0	-5.506
15	0xc01852f1a9fbe76d	-6.081
16	0xc017bf7ced916873	-5.937
17	0xc00ee76c8b439581	-3.863
18	0x4014b74bc6a7ef9e	5.179
19	0x4009916872b020c5	3.196
20	0xc0188f5c28f5c28f	-6.14
21	0x40207e76c8b43958	8.247
22	0xc023f0a3d70a3d71	-9.97
23	0xc020d1eb851eb852	-8.41
24	0xc001666666666666	-2.175
25	0xc01b6e978d4fdf3b	-6.858
26	0xc02074bc6a7ef9db	-8.228
27	0x4015fae147ae147b	5.495
28	0x3fe410624dd2f1aa	0.627
29	0x4015b22d0e560419	5.424
30	0x400da9fbe76c8b44	3.708
31	0xbff3a9fbe76c8b44	-1.229
32	0xbff2e978d4fdf3b6	-1.182
33	0x4004b22d0e560419	2.587
34	0xbffe978d4fdf3b64	-1.912
35	0xbfe3ef9db22d0e56	-0.623
36	0x401cf4bc6a7ef9db	7.239
37	0x401254fdf3b645a2	4.583
38	0xc00d72b020c49ba6	-3.681
39	0x401272b020c49ba6	4.612
40	0x4016bb645a1cac08	5.683
41	0x400ac28f5c28f5c3	3.345
42	0x4020428f5c28f5c3	8.13
43	0x401a3f7ced916873	6.562
44	0xc01345a1cac08312	-4.818
45	0x4002020c49ba5e35	2.251
46	0x4022ef9db22d0e56	9.468
47	0x40008f5c28f5c28f	2.07
48	0x401a6f9db22d0e56	6.609
49	0x4009ced916872b02	3.226
50	0xc016fced916872b0	-5.747
51	0x4021a353f7ced917	8.819
52	0xc0007ae147ae147b	-2.06
53	0xc0228a3d70a3d70a	-9.27
54	0x400f083126e978d5	3.879
55	0xc01ae04189374bc7	-6.719
56	0x402073b645a1cac1	8.226
57	0x40004189374bc6a8	2.032
58	0xc01183126e978d50	-4.378
59	0xc018c5a1cac08312	-6.193
60	0xbffed916872b020c	-1.928
61	0xc01f3126e978d4fe	-7.798
62	0x40230c49ba5e353f	9.524
63	0xc0170d4fdf3b645a	-5.763
64	0xc016f1a9fbe76c8b	-5.736
65	0xc010fbe76c8b4396	-4.246
66	0x40201604189374bc	8.043
67	0x4023e04189374bc7	9.938
68	0xc00353f7ced91687	-2.416
69	0x401d21cac083126f	7.283
70	0xc01a0a3d70a3d70a	-6.51
71	0xc0207ae147ae147b	-8.24
72	0xc01f54fdf3b645a2	-7.833
73	0x401ec8b439581062	7.696
74	0xbff90a3d70a3d70a	-1.565
75	0xc01c6978d4fdf3b6	-7.103
76	0x3fe91eb851eb851f	0.785
77	0x3ff2978d4fdf3b64	1.162
78	0xc0207f7ced916873	-8.249
79	0xc0208bc6a7ef9db2	-8.273
80	0x401c0c49ba5e353f	7.012
81	0xc01a3126e978d4fe	-6.548
82	0xc023ac8b43958106	-9.837
83	0xc019e66666666666	-6.475
84	0xc011b645a1cac083	-4.428
85	0x401746a7ef9db22d	5.819
86	0xc01a2d0e56041893	-6.544
87	0x40013f7ced916873	2.156
88	0xbffe5e353f7ced91	-1.898
89	0xc000b851eb851eb8	-2.09
90	0x400ef1a9fbe76c8b	3.868
91	0x4007a1cac083126f	2.954
92	0xc01810624dd2f1aa	-6.016
93	0xc0225916872b020c	-9.174
94	0x4010010624dd2f1b	4.001
95	0xc0109374bc6a7efa	-4.144
96	0x3fd4395810624dd3	0.316
97	0xbffb604189374bc7	-1.711
98	0xc0197be76c8b4396	-6.371
99	0x401f89374bc6a7f0	7.884

b2 f8 [100]
0	0x3fc26e978d4fdf3b	0.144
1	0x3fdc189374bc6a7f	0.439
2	0x3fcdb22d0e560419	0.232
3	0x3fe820c49ba5e354	0.754
4	0x3fe3c6a7ef9db22d	0.618
5	0x3fc8b4395810624e	0.193
6	0x3fcbc6a7ef9db22d	0.217
7	0x3fd449ba5e353f7d	0.317
8	0x3fe38d4fdf3b645a	0.611
9	0x3fecf5c28f5c28f6	0.905
10	0x3f978d4fdf3b645a	0.023
11	0x3fe147ae147ae148	0.54
12	0x3fad2f1a9fbe76c9	0.057
13	0x3fee2d0e56041893	0.943
14	0x3fc3333333333333	0.15
15	0x3feae978d4fdf3b6	0.841
16	0x3fece5604189374c	0.903
17	0x3fe947ae147ae148	0.79
18	0x3fe66e978d4fdf3b	0.701
19	0x3fe7333333333333	0.725
20	0x3fc083126e978d50	0.129
21	0x3fdae147ae147ae1	0.42
22	0x3fed3f7ced916873	0.914
23	0x3fee978d4fdf3b64	0.956
24	0x3fea04189374bc6a	0.813
25	0x3fe7020c49ba5e35	0.719
26	0x3fe7a5e353f7ced9	0.739
27	0x3fe74395810624dd	0.727
28	0x3fcb020c49ba5e35	0.211
29	0x3feb0a3d70a3d70a	0.845
30	0x3fec5a1cac083127	0.886
31	0x3fe9d2f1a9fbe76d	0.807
32	0x3fc0624dd2f1a9fc	0.128
33	0x3fd147ae147ae148	0.27
34	0x3f8cac083126e979	0.014
35	0x3feb74bc6a7ef9db	0.858
36	0x3fcdb22d0e560419	0.232
37	0x3fe11eb851eb851f	0.535
38	0x3fdd810624dd2f1b	0.461
39	0x3fdae147ae147ae1	0.42
40	0x3fe4083126e978d5	0.626
41	0x3fc04189374bc6a8	0.127
42	0x3fe116872b020c4a	0.534
43	0x3fe6353f7ced9168	0.694
44	0x3fe8ac083126e979	0.771
45	0x3fef2b020c49ba5e	0.974
46	0x3fa2f1a9fbe76c8b	0.037
47	0x3fe71a9fbe76c8b4	0.722
48	0x3fc3b645a1cac083	0.154
49	0x3fb4395810624dd3	0.079
50	0x3fdf1a9fbe76c8b4	0.486
51	0x3fe8fdf3b645a1cb	0.781
52	0x3fa810624dd2f1aa	0.047
53	0x3fe851eb851eb852	0.76
54	0x3fdb95810624dd2f	0.431
55	0x3fe7c6a7ef9db22d	0.743
56	0x3fc0000000000000	0.125
57	0x3fd10624dd2f1aa0	0.266
58	0x3fd25e353f7ced91	0.287
59	0x3fe9ba5e353f7cee	0.804
60	0x3fe79db22d0e5604	0.738
61	0x3fe5374bc6a7ef9e	0.663
62	0x3fda6e978d4fdf3b	0.413
63	0x3fbf3b645a1cac08	0.122
64	0x3fee76c8b4395810	0.952
65	0x3feac083126e978d	0.836
66	0x3fd8a3d70a3d70a4	0.385
67	0x3fdae147ae147ae1	0.42
68	0x3fe62d0e56041893	0.693
69	0x3fc147ae147ae148	0.135
70	0x3fc2f1a9fbe76c8b	0.148
71	0x3fe62d0e56041893	0.693
72	0x3fbef9db22d0e560	0.121
73	0x3fd21cac083126e9	0.283
74	0x3fea6e978d4fdf3b	0.826
75	0x3fc020c49ba5e354	0.126
76	0x3fd8c49ba5e353f8	0.387
77	0x3fd6c8b439581062	0.356
78	0x3fdb22d0e5604189	0.424
79	0x3fee666666666666	0.95
80	0x3fd1fbe76c8b4396	0.281
81	0x3fe09374bc6a7efa	0.518
82	0x3f826e978d4fdf3b	0.009
83	0x3fd6872b020c49ba	0.352
84	0x3fef1a9fbe76c8b4	0.972
85	0x3fc22d0e56041893	0.142
86	0x3fe34395810624dd	0.602
87	0x3fe4189374bc6a7f	0.628
88	0x3fe2b851eb851eb8	0.585
89	0x3fecbc6a7ef9db23	0.898
90	0x3fd1374bc6a7ef9e	0.269
91	0x3fe8dd2f1a9fbe77	0.777
92	0x3feb4bc6a7ef9db2	0.853
93	0x3fce978d4fdf3b64	0.239
94	0x3fe3126e978d4fdf	0.596
95	0x3fd947ae147ae148	0.395
96	0x3fcba5e353f7ced9	0.216
97	0x3f80624dd2f1a9fc	0.008
98	0x3fe9810624dd2f1b	0.797
99	0x3fefb645a1cac083	0.991
